Arduino/Nano-33-BLE-Sense/Chapter03/09_classification_rev2/snow_forecast_model.tflite (tflite, 2088 bytes, 2 tensors)

sequential/dense_1/MatMul i1 [1, 12] scale=0.013118314 zero_point=0
-1.5348427 -0.34107617 -1.6660259 0.30172122 0.13118313 0.52473253 0.20989302 -1.4036596
0.47225928 0.53785086 0.2886029 -0.5772058
00000000: 8be6 8117 0a28 1095 2429 16d4

sequential/dense/MatMul i1 [12, 6] scale=0.010222198 zero_point=0
1.287997 0.8382203 0.74622047 0.24533276 0.29644376 -0.36799914 -0.56222093 -0.23511057
-0.38844353 -0.07155539 -0.36799914 -0.56222093 0.34755474 1.0426643 1.236886 -0.010222198
0.15333298 -0.18399957 0.31688815 0.28622156 -0.54177654 0.18399957 0.13288859 -0.30666596
-0.040888794 0.21466617 -0.010222198 -0.19422176 0.50088775 -0.30666596 0.0 0.40888792
-0.41911015 0.18399957 0.51110995 0.30666596 0.030666595 -0.29644376 -0.112444185 0.6542207
0.45999894 0.38844353 0.97110885 0.34755474 1.2982192 0.15333298 -0.17377737 -0.08177759
0.31688815 -0.10222198 -0.31688815 -0.14311078 0.25555497 0.41911015 -0.12266638 0.0
-0.08177759 0.45999894 -0.18399957 0.5826653 -0.15333298 0.12266638 0.0 0.091999784
0.76666486 0.49066553 0.8484425 0.7359983 -0.040888794 -0.08177759 -0.32711035 -0.6542207
00000000: 7e52 4918 1ddc c9e9 daf9 dcc9 2266 79ff
00000010: 0fee 1f1c cb12 0de2 fc15 ffed 31e2 0028
00000020: d712 321e 03e3 f540 2d26 5f22 7f0f eff8
00000030: 1ff6 e1f2 1929 f400 f82d ee39 f10c 0009
00000040: 4b30 5348 fcf8 e0c0
